…
Successfully injected adapter after model.layers.31.self_attn.q_proj with args: {'in_features': 4096, 'num_components': 512}
Successfully injected adapter after model.layers.31.self_attn.k_proj with args: {'in_features': 1024, 'num_components': 512}
Successfully injected adapter after model.layers.31.self_attn.v_proj with args: {'in_features': 1024, 'num_components': 512}
Successfully injected adapter after model.layers.31.self_attn.o_proj with args: {'in_features': 4096, 'num_components': 512}
trainable params: 378880 || all params: 7242110976 || trainable%: 0.005231623780077241
ADAPTER MODEL ARCHITECTURE
MistralForCausalLM(
  (model): MistralModel(
    (embed_tokens): Embedding(32000, 4096)
    (layers): ModuleList(
      (0-30): 31 x MistralDecoderLayer(
        (self_attn): MistralAttention(
          (q_proj): Linear(in_features=4096, out_features=4096, bias=False)
          (k_proj): Linear(in_features=4096, out_features=1024, bias=False)
          (v_proj): Linear(in_features=4096, out_features=1024, bias=False)
          (o_proj): Linear(in_features=4096, out_features=4096, bias=False)
        )
        (mlp): MistralMLP(
          (gate_proj): Linear(in_features=4096, out_features=14336, bias=False)
          (up_proj): Linear(in_features=4096, out_features=14336, bias=False)
          (down_proj): Linear(in_features=14336, out_features=4096, bias=False)
          (act_fn): SiLU()
        )
        (input_layernorm): MistralRMSNorm((4096,), eps=1e-05)
        (post_attention_layernorm): MistralRMSNorm((4096,), eps=1e-05)
      )
      (31): MistralDecoderLayer(
        (self_attn): MistralAttention(
          (q_proj): Sequential(
            (0): Linear(in_features=4096, out_features=4096, bias=False)
            (1): DCTAdapter(
              (adapter_down): Linear(in_features=4096, out_features=18, bias=False)
              (adapter_up): Linear(in_features=18, out_features=4096, bias=False)
            )
          )
          (k_proj): Sequential(
            (0): Linear(in_features=4096, out_features=1024, bias=False)
            (1): DCTAdapter(
              (adapter_down): Linear(in_features=1024, out_features=18, bias=False)
              (adapter_up): Linear(in_features=18, out_features=1024, bias=False)
            )
          )
          (v_proj): Sequential(
            (0): Linear(in_features=4096, out_features=1024, bias=False)
            (1): DCTAdapter(
              (adapter_down): Linear(in_features=1024, out_features=18, bias=False)
              (adapter_up): Linear(in_features=18, out_features=1024, bias=False)
            )
          )
          (o_proj): Sequential(
            (0): Linear(in_features=4096, out_features=4096, bias=False)
            (1): DCTAdapter(
              (adapter_down): Linear(in_features=4096, out_features=18, bias=False)
              (adapter_up): Linear(in_features=18, out_features=4096, bias=False)
            )
          )
        )
        (mlp): MistralMLP(
          (gate_proj): Linear(in_features=4096, out_features=14336, bias=False)
          (up_proj): Linear(in_features=4096, out_features=14336, bias=False)
          (down_proj): Linear(in_features=14336, out_features=4096, bias=False)
          (act_fn): SiLU()
        )
        (input_layernorm): MistralRMSNorm((4096,), eps=1e-05)
        (post_attention_layernorm): MistralRMSNorm((4096,), eps=1e-05)
      )
    )
    (norm): MistralRMSNorm((4096,), eps=1e-05)
    (rotary_emb): MistralRotaryEmbedding()
  )
  (lm_head): Linear(in_features=4096, out_features=32000, bias=False)
)
trainable layers: 
model.layers.31.self_attn.q_proj.1.adapter_gate_logits
model.layers.31.self_attn.q_proj.1.adapter_down.weight
model.layers.31.self_attn.q_proj.1.adapter_up.weight
model.layers.31.self_attn.k_proj.1.adapter_gate_logits
model.layers.31.self_attn.k_proj.1.adapter_down.weight
model.layers.31.self_attn.k_proj.1.adapter_up.weight
model.layers.31.self_attn.v_proj.1.adapter_gate_logits
…
